model/number_classifier.onnx (onnx, 117494 bytes, 10 tensors)

L1.weight f4 [120, 128]
00000000: 6d94 463d 38ec 21bd 04cb 33bd ad6c d9bc
00000010: ee41 593d 8f3b b7bd e093 d03d 1ec0 18be
00000020: 1a43 e1bd 55e5 b4bd fec0 8fbd 62fb fbbd
00000030: 23e5 22be a07c 8dbd f820 92be 87dd 1cbe
00000040: 744a 73bd 00ba 3bbd 88f6 9c3d af4c bc3d
00000050: 6df4 863d 1d91 a53d add9 113e 8aa7 b63c
00000060: 3faa 453d 9135 d7bd 8039 26be 0a59 02be
00000070: 3316 ddbd c79a 23bd 0656 36be dfbf e5bd
00000080: 4d4f aebc 381b ddbd 2a4d 9d3d 65f8 53be
00000090: 7148 0dbe d488 5cbe 9e0a 88bd 4805 19be
000000a0: 9e46 bd3d eb98 3bbc e917 e7bd c9b8 47bd
000000b0: 4952 cfbd 8529 8ebd 0e44 ac3d aa75 9d3d
000000c0: e236 05be cd6b 283d ee33 f6bc 618d 2d3e
000000d0: 302d eabd 675d 0f3d 390b 87bc 2cf2 793d
000000e0: b54d 423e 7edb e23d 7d1e 0b3e ad31 3bbc
000000f0: 0fd3 e93d 36c0 e7bc 9e44 0a3e db9b 883d
00000100: d186 58bc 3427 fe3c ddc7 073d 7967 cf3d
00000110: 222a 8e3d a287 833b a54e 12be e203 76bd
00000120: 0c28 8b3e 7df8 6c3d aaf9 193e 5608 313d
00000130: b26f 3b3e a57b e33c 40ef 323e 86c6 003e
00000140: 8a98 d7bd 935b 39bd 252a a93d fa84 873d
00000150: 2770 343e 129d 363d 4a20 693e bcfa 9cbc
00000160: a272 563d 425d dcbb 83ab 02be 23f1 4abe
00000170: 02d7 9bbd d674 f3bd 6d5f e93c da0a 07bc
00000180: e88a 1fbe a8da cf3d e5df 38bd 7823 ec3c
00000190: 0228 aebd cc30 933c d9a4 d0bd 2d28 d63d
000001a0: 4d6a 0d3e d2b7 6c3d 218c 14b9 ed8e 8cbd
000001b0: 35c9 013e 56b5 093e db07 183e eb47 203e
000001c0: a6d8 18be 8c65 f1bd 3078 f0bc 6497 11bc
000001d0: ecb8 68bd 4532 15be 6ef2 c9bd 37db bb3d
000001e0: 0497 1fbd 95de 40be 623a d43d 0e7c f5bb
000001f0: 6356 503d f896 95bd d2d4 b9bd ce65 d5bd
00000200: 4b2b aebe 4bdb a1be 7e32 a9bd 1174 1d3c
00000210: 6320 b5b8 ef1a c2bd 953f 1dbe b46e 30be
00000220: f506 fbbd 4c49 b33d f301 bbbd d147 af3c
00000230: 8c9c efbd 5fa6 77bd c02b 513d 193c 7bbd
00000240: 87de 97bc c471 7c3c 8a15 863c 1f62 993d
00000250: 5525 153c 96d9 8f3c 98b1 be3e 4ccf ff3c
00000260: bb22 473e 30f1 2e3e edbd b93d 0e6b 5e3d
00000270: dba1 d9bb 2663 32be 4e6b 4cbd 98be 53be
00000280: 0191 a13d 14a2 893d 781e 5cbd c67b f23c
00000290: d10d 803e d035 873d 7a1c 723e cab3 00bd
000002a0: 6574 90bb e138 9f3d 87e2 dabd 8acd 8fbc
000002b0: 4ce7 8c3d 0218 f3bd 1471 19bd 4657 b33d
000002c0: 2b4a bc3a 4309 fa3d 918b 6dbd ea09 1b3c
000002d0: a405 af3d 253f 833d d2c7 3a3d df7a ea3d
000002e0: a81c 813d 6405 2fbd 16cf 573e 1c05 443e
000002f0: ceb2 1ebe 3ca6 91be 2f58 243e 0e28 3dbe
00000300: d4cb 86bd 7127 16be ae0c 86bd 1e78 07bc
00000310: 3d3d 40be 522f da3a d899 273e 99c0 5d3e
00000320: 98aa 1a3d 024f fcbd 6044 bf38 8368 30be
00000330: 9ec6 ecbc 87f2 adbd ec58 34bc 4ca0 5ebd
00000340: 24af 2d3d 4694 bc3c c3d6 383c 155f b2bd
00000350: e204 89bd c793 bbbd 78ed 833e 4fe7 cc3d
00000360: fe20 1d3e b2f6 c53d 2a9a d33d 41fd c7bd
00000370: 107d 563c 927d 8bbb e1fb 72bd a70b 8b3b
00000380: 9989 813d ecb1 103e a78c a83d 8517 423e
00000390: 3460 313c 90f6 d03d 3d7f c7bc cd36 7dba
000003a0: 74cd ae3c b64d 2fbc ecf2 b63d c327 19bd
000003b0: 3cbf fbbd b61e 6ebd 6d16 8cbe 8f1f 5fbe
000003c0: c1ea 97bd 14d6 543d b799 453c 5ecc 5b3e
000003d0: 4a83 8f3c 8161 ff3d efae 2e3b 4157 4abd
000003e0: da43 4bbe c15a e1bc 01dd 09be d748 0f3e
000003f0: 15e1 29be 8da6 53be 10da 16be a537 1bbd
0.048481394 -0.039531916 -0.043894783 -0.026541078 0.05304139 -0.08946907 0.10184455 -0.14917037
-0.10999127 -0.08832804 -0.07019232 -0.12303807 -0.15907721 -0.06908536 -0.28540778 -0.15318881
-0.059397176 -0.04583168 0.076642096 0.09194314 0.06589589 0.08084319 0.14243193 0.022296686
0.048258062 -0.10508264 -0.16232872 -0.12729278 -0.1079525 -0.03994253 -0.17806253 -0.11218237
-0.021278048 -0.10796207 0.076807335 -0.20700224 -0.13797165 -0.21536571 -0.0664265 -0.14943421
0.09241985 -0.011450033 -0.112838574 -0.04876021 -0.101231165 -0.06941513 0.08411418 0.07688458
-0.13009217 0.04111843 -0.030054059 0.16948463 -0.114344 0.035001185 -0.016484844 0.06102197
0.18974955 0.11077021 0.13585849 -0.011425418 0.11417209 -0.028289896 0.13502738 0.06670352
-0.0132157365 0.031024553 0.03314959 0.10127158 0.0694163 0.0040139714 -0.14287813 -0.060062297
0.2717899 0.057854164 0.15036646 0.04322084 0.18304327 0.02776892 0.17474079 0.1257573
-0.105271414 -0.045253348 0.082599916 0.0661716 0.17620908 0.044583388 0.22766224 -0.019162528
0.052355416 -0.0067249844 -0.12760739 -0.19818549 -0.07609369 -0.11887519 0.028487885 -0.008242333
-0.15580332 0.10149127 -0.045135397 0.028825507 -0.08503725 0.017967604 -0.10187692 0.10456882
0.13810082 0.057792492 -0.00014166582 -0.068631984 0.1267441 0.1344808 0.14846747 0.15652435
-0.14926395 -0.11786947 -0.029354185 -0.008886192 -0.05681698 -0.14569958 -0.09860693 0.09172671
-0.03896238 -0.18834908 0.10362698 -0.007491595 0.050863635 -0.07304186 -0.090737954 -0.10419808
-0.34017405 -0.3161262 -0.08261584 0.009610192 -8.636785e-05 -0.094777934 -0.15356286 -0.1722973
-0.12257186 0.08754215 -0.09131231 0.02139655 -0.11699781 -0.0604614 0.051067114 -0.06133661
-0.018538726 0.015407983 0.016367693 0.07489418 0.009103139 0.017559808 0.37244868 0.031226777
0.19446842 0.17084193 0.090694286 0.054301314 -0.006641609 -0.17420635 -0.04990702 -0.20678174
0.078889854 0.06720367 -0.053739995 0.029600035 0.2501054 0.06602061 0.23643675 -0.03142146
-0.0044084066 0.07774521 -0.10687738 -0.017554063 0.06880054 -0.118698135 -0.037461355 0.087568805
0.0014365365 0.12208798 -0.05799443 0.009462813 0.08545998 0.06408528 0.04560072 0.11449217
0.06304294 -0.04272975 0.21075091 0.19142574 -0.15497896 -0.2844714 0.16049264 -0.18472311
-0.06581846 -0.14663483 -0.06545387 -0.008268384 -0.1877336 0.0016646183 0.1636728 0.21655501
0.037760347 -0.12319757 9.1203256e-05 -0.17227368 -0.028903302 -0.08493524 -0.011007529 -0.05435209
0.042403355 0.023019921 0.011281672 -0.08709542 -0.066903844 -0.09159046 0.25767112 0.10005056
0.15344617 0.09666194 0.10332139 -0.09765101 0.013091341 -0.0042569125 -0.05932224 0.0042433324
0.06325073 0.14130372 0.08229952 0.18954284 0.010826159 0.10203278 -0.024352664 -0.000965935
0.021338202 -0.01069968 0.089330524 -0.037391435 -0.122923344 -0.058134757 -0.2736086 -0.21789382
-0.07417823 0.051961973 0.012060574 0.21464679 0.017518658 0.12469769 0.0026654562 -0.049399618
-0.19850102 -0.027509095 -0.13463213 0.1399263 -0.16589768 -0.20669003 -0.14731622 -0.037894864

L1.bias f4 [120]
00000000: 9dd4 23bc e231 2dbc 2cc6 9abd d02b 4d3e
00000010: bdf4 c73d c378 a8bd 8421 6ebd f7ec 5a3d
00000020: aee6 dcbd 8c9c e0bc 84ab 013e 812d 9bbd
00000030: 6602 e0bc e209 3f3c aa2d 013e 694d 573c
00000040: 8f8a 033d 78c9 b53c b26c 653e f7a6 36bd
00000050: 8683 793e d83a b4bd 4e2e 683d 33d5 5abd
00000060: 90f2 b0bd 7b20 ad3d d095 f3bc fc9e 4d3d
00000070: c696 acbd abf9 0fbd 79ee 813d cfe5 3abd
00000080: f18f 0f3e 722d f2bd aba4 0d3a ddc2 653b
00000090: 65fc 12be 988a 413c 7b2f b6bc 43d9 693e
000000a0: bbe5 d53b 287a 0b3e 96e5 a6bd 6e18 4f3d
000000b0: 906f 02be f43e b1bb a8b0 07bc c8d2 bc3d
000000c0: baa5 31bd 4078 613c 2fac fbbb 1f5c abbc
000000d0: 5971 e83b f188 693d 25a2 283e 3215 26be
000000e0: 864a 583e 44c1 13bb 4964 413c 68eb f23d
000000f0: 6cb2 073e 9cc1 a1bb c8e0 923d e1aa c23d
00000100: 6ed9 fd3c b30e 20be 3574 903d fbd2 94bd
00000110: f4ce 1d3e 4ca9 37bd 0175 3a3e dbf1 61bd
00000120: 4aa8 953d 0cdf 1e3e 0e76 70ba 61d0 383d
00000130: a1b8 b8bd 5f35 b63d 528f cabc b956 393e
00000140: a934 2a3d 39c0 2b38 fa4c fdbd 0fbc 8abd
00000150: 7cc9 28bc f36b 423e 3574 b93d 4662 1d3c
00000160: ed63 d03d 88be f43d d9ef 373d edaf 2e3e
00000170: 0a90 153e abab 003c 63a0 633d 3e16 623c
00000180: 7744 27bd 803f 093e f464 c63d 84d9 d53d
00000190: a157 b2bd 3fb9 66bc 63cc 263c 42c8 203e
000001a0: c067 343e 7c14 25be d52b 67bd 7dda d23d
000001b0: 9e40 0dba 7d04 863d a6e8 f0bd 19e0 4e3e
000001c0: 3ca6 ebbd 63c6 04bd 00e4 3e3e a6a2 2f3e
000001d0: 7daf 89bd 46f3 333d 2651 393d 3148 ea3d
-0.009999421 -0.010570975 -0.075573295 0.20036244 0.09763477 -0.082261585 -0.05813743 0.053448644
-0.10786186 -0.027418397 0.12663084 -0.075770386 -0.027344894 0.011660071 0.12615076 0.013141015
0.03211456 0.022190794 0.22404745 -0.044592824 0.24366578 -0.08800286 0.056684785 -0.05342598
-0.08640015 0.08453461 -0.029734522 0.050200447 -0.08427195 -0.03515021 0.06344313 -0.04562932
0.14019753 -0.11825074 0.00054032606 0.0035058775 -0.14354093 0.0118128285 -0.022239437 0.22836785
0.00652763 0.13620818 -0.08149259 0.050560407 -0.1273787 -0.005409116 -0.008281864 0.09219891
-0.04337094 0.01376158 -0.007680438 -0.02091795 0.00709359 0.057015363 0.16468103 -0.16219023
0.21122178 -0.0022545615 0.011803695 0.118613064 0.13251656 -0.00493641 0.0717178 0.09505249
0.030987468 -0.15630607 0.07053415 -0.07266804 0.15410978 -0.04483919 0.18208696 -0.055162292
0.07307489 0.15514773 -0.0009172865 0.0451206 -0.0901959 0.088968985 -0.024726544 0.18099488
0.041554127 4.09486e-05 -0.12368198 -0.067741506 -0.010301944 0.18986492 0.09055368 0.00960595
0.10175309 0.119504035 0.04490647 0.17059298 0.14605728 0.007853429 0.05557288 0.013799248
-0.040836778 0.1340313 0.09687224 0.104418784 -0.0870812 -0.014082252 0.0101805655 0.15701392
0.17617702 -0.16121095 -0.056438286 0.102955796 -0.0005388352 0.06543825 -0.11763124 0.20202674
-0.11506316 -0.03241576 0.18641663 0.17151889 -0.06722925 0.043933176 0.045243405 0.11439551

L2.weight f4 [84, 120]
00000000: 6a03 0bbe 11bf d33d dad6 2b3e 4e1f 04be
00000010: d34a c7bd 76ec 12bd 73a6 c13c 4d99 c3be
00000020: 3bb1 bbbd 3e1d a53d faca bcbd 2e93 863d
00000030: f32c 833e a611 ec3d 7e8f 1d3e 2a49 5dbe
00000040: cdcf 5fbe 7318 133e 968f c4bd a256 883e
00000050: 5906 82be c47e b23c 8147 94bd 1511 8fbc
00000060: 6f07 58be 4d84 113e e84a c3bb 5327 bcbe
00000070: 2c0c 103d f6b5 f13d b643 7fbd a2a0 4f3d
00000080: 275a 033e e46d 93be fb68 2dbe 346a e9bd
00000090: ad77 3a3e c561 f73d 9007 5bbe 671c 6a3d
000000a0: 88cb 703e 61ad a8bd eaa2 c23c 7553 463e
000000b0: fe65 94bd 505e c1be d87e 4c3e 589e 6c3e
000000c0: dba6 6cbd 7cdb 4e3c c85a 31be 2e91 063d
000000d0: c322 033b d811 a23e 717c c13b deae 2bbd
000000e0: 26f5 e43b bfa4 46bd c1b6 1e3e 5488 07be
000000f0: 6d3c 8a3e f178 1c3d eafd 66be ba77 25be
00000100: 198c 69be 85e6 f9bd 04b3 fcbb dbe6 a3be
00000110: c355 673c 2392 15bc ab7f 983e 657a 1b3e
00000120: 0be7 efbb 37e4 cd3b aa64 d3bd b2dc 093e
00000130: f941 57be 2379 38be f0d2 3b3a 5dfa 1e3e
00000140: 12c2 8abe 4221 1ebe 3589 b03c 629d 883e
00000150: 4978 183e 15a0 083e c2cc 483e 0cb1 df3d
00000160: 0c6e 3d3d 1c69 e5bd 1323 723d ade1 86be
00000170: f785 9dbe 2261 113e b92a e03e e3ec 70be
00000180: 86c3 07be f84d bc3d 11f0 b43c 620f 603e
00000190: a00f 503d 4824 893d b184 333d ecd8 79be
000001a0: b937 aa3d e054 0cbc 5a7a a5bd f162 9d3e
000001b0: 40bd ab3e 88c8 71bb 7281 a2be 7733 b6bd
000001c0: c5eb 943c c8eb 49be a092 9abb 6e00 803d
000001d0: 5e6b 0fbd ea80 163c d199 933d f88d 23bd
000001e0: 6bda debd c906 a33d a899 26be f148 05be
000001f0: d3c0 ea3d 14df 15bd 732d 31bd e431 833b
00000200: d671 073e 31ef 1f3e 1e3b 37bd 0ea6 383d
00000210: ad39 7e3d 34d3 34be bdb1 fb3c e2f3 f93e
00000220: e7fa 803e 7467 1d3d e9a7 693d 8126 923e
00000230: 71ce 713e 8b6c 503e 195b febd bc45 38bc
00000240: 10db 0d3e c56d e43d da41 50be 4a64 cb3d
00000250: c8ea f83d 3944 383e 6ad8 3a3e b493 f1bd
00000260: ff73 ad3c b11b 093c 590d 353e c079 af3d
00000270: 47cd 28be 66e5 f7bd cf2a 8b3b fd6e ad3d
00000280: 2d86 f4bd 7762 263e 2070 c43d 065d 77be
00000290: 0f14 1f3d 8530 8c3e 3202 3d3c 6c59 73bb
000002a0: 5346 6dbb 3ec6 da3e 66ce dc3d fde8 043c
000002b0: eb5e 033d 0bef 80bd 74b1 ce3e a077 a83d
000002c0: 074d a73d 5f77 34bc d8b4 4dbd 5fe1 8d3d
000002d0: 39e0 063b 1175 92bd a185 d03e 083d 37bc
000002e0: 989b e03a f446 d43d a4da db3d 7d70 0dbe
000002f0: 350f 933e a564 d53b 217e e53d 9c8e 163e
00000300: eadd 26bd 1137 f2bd 713d 1abe a078 3ebe
00000310: 1afe e03d 651a 433c fc31 6d3e 5d8b c63d
00000320: 070e be3e 67d5 91bd 7a6e f63c 00dc 123d
00000330: 3b81 a7bd 3161 fa3d 23b2 15bc ed7a a6bd
00000340: 241d 7abd eeb2 a8bd 40ac 603e b682 cabd
00000350: 0c13 1d3d c166 933e 901b bd3e 095a a93d
00000360: 158c 30bb 9fb9 933d 2fb9 babd be9a 8e3d
00000370: ddda 30be 40ee f63e 462b eabd e69c 183e
00000380: ef19 8a3e 7333 7c3d 1362 dc3b 9cdc 82bd
00000390: 860f 84be 9ed7 3a3d 23b9 593e 3a43 6ebd
000003a0: 0e7f 06bd d187 9ebc 674e 373e 5328 393e
000003b0: 09c6 bcbe 9021 6f3c 65b6 793d 45a7 1bbe
000003c0: 3f46 eb3d 2633 55bd b4e1 9abd d19a b7be
000003d0: 6c8a e8bc b8a5 65be 7426 e23d fd11 8bbe
000003e0: 06f7 75bd 1977 493d 162e 8dbd 20d7 54be
000003f0: b1bd 7fbd 69d2 bfbd 8c36 85ba 7392 863e
-0.13575521 0.103391774 0.16781178 -0.12902567 -0.097310685 -0.035870038 0.02363894 -0.38202897
-0.091646634 0.08062218 -0.09218402 0.06571041 0.2562023 0.11526804 0.15386769 -0.21609941
-0.21856613 0.14364795 -0.09597699 0.26628596 -0.25395468 0.021788962 -0.07240201 -0.0174642
-0.21096586 0.14210625 -0.0059598573 -0.36748752 0.035167858 0.118022844 -0.062320434 0.0506903
0.12827359 -0.28794777 -0.16934578 -0.1139721 0.18209715 0.12079195 -0.21389604 0.057155993
0.23515141 -0.082361944 0.023759324 0.19367774 -0.07246016 -0.37767267 0.19970262 0.23107278
-0.057776313 0.012625571 -0.17319787 0.032853298 0.0020009733 0.3165424 0.005904727 -0.041914813
0.006987232 -0.048496958 0.15499403 -0.13235599 0.26999226 0.038201276 -0.22557798 -0.16158953
-0.2280735 -0.12202171 -0.00771177 -0.32012066 0.014119568 -0.00912908 0.29784903 0.15183409
-0.0073212436 0.006283309 -0.103219345 0.13463095 -0.2102126 -0.1801496 0.0007164916 0.15525194
-0.2710119 -0.15442374 0.0215498 0.26682574 0.14889635 0.13342316 0.19609359 0.10922441
0.046247527 -0.11201689 0.05911548 -0.26344052 -0.3076627 0.1419721 0.43782595 -0.23527865
-0.1325818 0.09194559 0.022087129 0.21880868 0.05079615 0.06696373 0.043827716 -0.24399155
0.083114095 -0.008565158 -0.08079977 0.3073955 0.33542824 -0.0036893208 -0.31739384 -0.08896535
0.01817883 -0.1971885 -0.004717186 0.06250082 -0.035014503 0.009186009 0.072070725 -0.039930314
-0.10881504 0.079602785 -0.16269553 -0.13016106 0.114625596 -0.036589697 -0.043256234 0.00400375
0.13227019 0.15618588 -0.044734113 0.045080237 0.062066723 -0.17658693 0.0307244 0.4881888
0.25191423 0.03842874 0.057044897 0.28545 0.23613907 0.20353906 -0.12419719 -0.011247095
0.13853097 0.111537494 -0.2033762 0.09931238 0.12154156 0.17994775 0.18246618 -0.1179575
0.021173475 0.008368419 0.17680873 0.08568144 -0.16484557 -0.12104301 0.0042470465 0.08468435
-0.119396545 0.16248499 0.09591699 -0.2415658 0.03883749 0.27380767 0.011536168 -0.0037132157
-0.0036205247 0.42729372 0.10781555 0.008112189 0.032072943 -0.06295594 0.4036976 0.08225942
0.08168989 -0.011014788 -0.050221294 0.06927752 0.0020580424 -0.07151235 0.4072695 -0.011183985
0.0017136214 0.10365096 0.10735062 -0.13812442 0.2872254 0.006512242 0.11205698 0.14702839
-0.040738977 -0.11826909 -0.150625 -0.18600702 0.10985966 0.011908148 0.23163599 0.0969455
0.37120077 -0.071207814 0.030081976 0.03585434 -0.08178946 0.12225569 -0.009136709 -0.08128915
-0.061062947 -0.08237253 0.21940708 -0.098882124 0.038348243 0.28789333 0.3693509 0.08269126
-0.0026938964 0.07213139 -0.09117352 0.069631085 -0.1727099 0.48228645 -0.11434035 0.14903602
0.2697291 0.061572503 0.0067255585 -0.06389734 -0.25793093 0.045615785 0.2126203 -0.05816958
-0.032836013 -0.019351872 0.17901002 0.18081789 -0.3686984 0.014595404 0.06096496 -0.15200527
0.11488008 -0.052050732 -0.07562581 -0.35860303 -0.028386317 -0.22426498 0.110424906 -0.2716216
-0.060050033 0.049185846 -0.06893556 -0.20785189 -0.062436763 -0.093663044 -0.0010163351 0.26283607

L2.bias f4 [84]
00000000: 9ef0 583c 668f e63c 821b adbe 99bf 733d
00000010: 3892 b53d ada7 85bd 8e7b 02be 3efe e7bc
00000020: 16c9 023d 503a 413d a1a8 273c 47e9 1b3b
00000030: 6a46 053d 3828 9bbd ddf1 1bbb 33d9 c3bd
00000040: a6b7 7f3b a021 653d d71d cc3d 64d6 be3d
00000050: ca36 483e 0ce7 253d 1ae9 7d3d 41a1 df3d
00000060: 7217 a63d 2ceb f53c ea95 2f3e 27b2 463e
00000070: a13f 923d 3cae 34bb 1451 8dbb 228a 263e
00000080: 8992 cf3d c1e8 893e 1b92 0f3d b2db 213e
00000090: 97b8 ec3d 22b5 283d 7b0d 473d 08bb ce3c
000000a0: 2c2e cb3c 40fa f93d 4c8a af3d 0863 03bd
000000b0: 85b6 d53d 296c 97bc 5834 163e 373c 873d
000000c0: 11dc de3d b976 25bd 0a7f 92bd ced9 e2bd
000000d0: db46 bfbd 4c95 3fbd b11c 7b3e 83a0 ac3d
000000e0: d583 173d f5e4 033e db65 3abd e6a9 ab3d
000000f0: 2be5 5abd a9d6 333e ccd6 443e 79d6 723d
00000100: fa60 5b3c 73b6 bcbd 0f90 9ebd a6b2 afbd
00000110: 568d 1fbd 9295 193d 2a43 0f3d a3c6 be3d
00000120: aa50 4e3e 9b1b d83d 3c94 8a3d a90e 4c3d
00000130: df8f ab3d 99f2 13bd 8d03 d6bc 08db 333e
00000140: a8a2 a2bc c331 b03c 811a bcbd e164 55bd
0.013240961 0.02814455 -0.3381005 0.059508894 0.0886578 -0.06526122 -0.12742445 -0.028319474
0.03193005 0.04717475 0.010233075 0.0023790167 0.032537855 -0.075760305 -0.0023795285 -0.09562912
0.0039019375 0.05594027 0.09966629 0.093182355 0.1955215 0.040503547 0.06198988 0.109194286
0.081099406 0.030019365 0.17147031 0.19403897 0.071410425 -0.0027569672 -0.004312644 0.16263631
0.10135371 0.2693539 0.035051446 0.15806463 0.11558645 0.041188367 0.04859684 0.025235668
0.02480229 0.122059345 0.085713 -0.032076865 0.104352035 -0.018484192 0.14668405 0.06603282
0.10881818 -0.040396426 -0.07153137 -0.11076699 -0.093396865 -0.04677324 0.24522664 0.08429053
0.03699096 0.12880309 -0.045507293 0.08382015 -0.053441208 0.17562355 0.19222564 0.05928657
0.01338982 -0.09214487 -0.07742321 -0.08578996 -0.038953148 0.037496157 0.034976162 0.09315231
0.20147958 0.1055214 0.06766555 0.04981867 0.083770506 -0.03612003 -0.02612474 0.17564023
-0.019852951 0.021508103 -0.09184743 -0.05209816

L3.weight f4 [9, 84]
00000000: e217 9b3e cf8b 393e bfd4 b7be c724 4bbe
00000010: 7cf2 b7be 1a0c 1bbe a98d 03bc 2223 26bb
00000020: d24b 81bc 770a b6be 490c d03d a55f 1d3d
00000030: 565c adbe f7bd 313e 228c 183c e58c 33be
00000040: d2f6 c73d 2846 473d a240 6fbe 3fb9 31be
00000050: ce26 373e 3610 4a3e a596 c4bd 207c 5e3b
00000060: 71d0 863d d981 3b3e c094 973d 5a78 ebbe
00000070: 9683 893c cdc9 b0bd 7457 2d3e 6ac9 103e
00000080: b752 fbbd 0d91 0fbf a47a e33d 40b8 e83d
00000090: 482f 803d 9fad 1c3e 2b52 8dbe aa4e 8bbe
000000a0: 4710 92be 467a b6bd 389a 163e 26be 173d
000000b0: 9f87 c13d 0620 313d 18de 2e3d 214a 33bd
000000c0: aae0 2ebe dc4c 4d3e 2dd8 0ebe 9a26 5dbd
000000d0: 47f4 40bd 1547 18bd c088 54bc c468 293d
000000e0: e231 37bd 2e77 083e e9ae 1dbe cca1 263e
000000f0: e633 5dbe 969e d13d 3c4f d3bd 5f0c cc3c
00000100: 6a18 f23c c0b2 2a3e 0677 ea3c 0162 e23d
00000110: 7ff5 6fbd 407c 1a3e 6997 403e cee0 0b3e
00000120: 876f b3be 8d03 533e db2e 22bf f454 383d
00000130: 97d0 91bd 495b 7cbe 3fb1 68be 2707 a73d
00000140: f904 653e e9e6 b8bc 2a9d 59be 94f3 86be
00000150: e597 76bc d64a 50be c345 09be 10c8 37be
00000160: c436 333e ef88 cb3d 6605 94bd 5ee9 8cbd
00000170: 22ef 7f3c b9e3 2d3d 0b67 a83d 1e26 133e
00000180: 06f4 d0bd 0cd3 993b 1091 4fbd 7b10 103d
00000190: 6486 98be 659e 76bd c292 1e3e 6491 cbbe
000001a0: 3297 013e 500b c63d 993e 653e b1eb e23d
000001b0: ee0e 36bb fe2d 033e 485f d0be c8d2 563e
000001c0: 7b27 413e 5841 5d3c 7edf d23d d389 49be
000001d0: ee16 303e 7efa 73bd 297b 81bd 6ecf 0b3e
000001e0: e659 dfbe 1db6 363e c6d0 3a3d c14e c1bd
000001f0: 3a52 19be f51b b5be 76d2 ecbe 9ed9 3abe
00000200: 3bb8 76be d231 53bd 271c a1be 9574 f53d
00000210: b701 663e 79f9 13be 42ce 7cbd 39f6 8bbd
00000220: 7612 8dbc 8c2e 48be 3de4 303e f33d 053e
00000230: c603 97bd c2e0 c8be e30d 5ebd abe4 dfbd
00000240: 6c47 cc3d ae0f b73d 5d4b 0dbe ba4d 853e
00000250: 68a5 153e e010 39be 6c92 cebd 12d6 353e
00000260: 874f 90bd cb14 12be bd47 0b3e 9d28 b4be
00000270: 31c6 a2be 7004 cdbe ec88 f73c 0665 b03d
00000280: 9d8f 6bbe 7691 0ebe c10b c33d 5f25 e1be
00000290: 9a2c adbe e1b5 893c c803 0fbe 605f 713d
000002a0: 0640 f2be 3653 a6be d433 33bd bd73 553e
000002b0: b87b 7cbe b232 60be d52b 6bbe 12a0 23bd
000002c0: 69ef 883c 9128 a83d 8a4b 433e 5bb6 0cbe
000002d0: 8b9a 5d3e af7e 713d a3e7 8e3a d070 b23c
000002e0: 162a 11bd cf4b c23d 25b1 733c a420 f5bd
000002f0: f826 e5bd 9846 2f3e 2828 32be a7e2 61bc
00000300: 50c7 e3bd 1ac5 66be 85d1 86bd da04 fc3c
00000310: 7231 573d 8b14 0f3d 2c87 11be c5c0 babd
00000320: 16e4 a33b 03a3 35bd a07a 3d3b c6ad eb39
00000330: 692c 0e3e 2d4c 7f3e 130a 533e c47c 503e
00000340: 20ad 97bd ef5d 123e 4848 39be 6e18 c13e
00000350: bcef ecbd d6ca fbbd 0d34 6fbc 86fe 603e
00000360: 2bc6 46bd 942e 613d eef1 bebc 058a 49bd
00000370: fac2 3abd 48a0 203e 4ac3 3bbe eabf 043e
00000380: eebd b8be bfe6 e0bd d307 be3c a03b f9bc
00000390: 8a87 313d a76e 58bd 0053 aa3d 3b00 6fbe
000003a0: 09c2 253e 5fa5 c73d 5e6e 7b3d 4daa 41be
000003b0: 1393 813e 622f a7ba ab01 f8bc 36c5 8c3d
000003c0: 89b4 583e 2311 75bd 837c 18bd 57f2 00be
000003d0: 1eba acba 8507 fd3d ee18 cc3d 9fb3 96bd
000003e0: 3951 7a3d 902a e3bd 3674 e6bd 6d29 083e
000003f0: 96a5 313d 92ef 1b3d bf3f 083e 322d c0bd
0.3029166 0.18119739 -0.359045 -0.19838248 -0.35927188 -0.15141335 -0.00802938 -0.002535053
-0.015783224 -0.3555486 0.10158593 0.03842129 -0.3385951 0.17357622 0.009310754 -0.17534216
0.09763874 0.04865089 -0.23364499 -0.17355822 0.17885897 0.19732746 -0.09599046 0.0033948496
0.06582726 0.18311252 0.07401419 -0.45990258 0.016786378 -0.086322404 0.16927892 0.14139333
-0.12271636 -0.56080705 0.11107376 0.11363268 0.06259018 0.15300606 -0.27601752 -0.27208453
-0.28528044 -0.089100406 0.14707267 0.037046574 0.09449696 0.04324343 0.042692274 -0.043771867
-0.1707789 0.20048851 -0.13949652 -0.05399189 -0.04710796 -0.037177164 -0.012972057 0.041359678
-0.044725306 0.13326713 -0.15398754 0.16272658 -0.21601829 0.10235326 -0.10317847 0.024908243
0.029552657 0.1666975 0.028621208 0.11053849 -0.058583733 0.1508646 0.18807758 0.13659975
-0.35046026 0.20606823 -0.63352746 0.045002893 -0.071198635 -0.24644198 -0.22723864 0.08155661
0.22365178 -0.022571044 -0.2125136 -0.2635771 -0.015050863 -0.20341048 -0.13405518 -0.17947412
0.1750136 0.099382274 -0.07227592 -0.06880449 0.015620979 0.0424535 0.08222779 0.1437001
-0.10202794 0.004694348 -0.05067545 0.035171967 -0.29790032 -0.06020965 0.15485671 -0.39759362
0.12655333 0.096701264 0.2238716 0.11080111 -0.0027779895 0.12810513 -0.40697694 0.20978844
0.18862717 0.013504349 0.10296534 -0.19681482 0.17196247 -0.05956506 -0.06322319 0.13653347
-0.43623275 0.17842908 0.045609258 -0.09438849 -0.14972773 -0.35372892 -0.4625432 -0.18247077
-0.24093716 -0.051561184 -0.3146679 0.11985127 0.22461592 -0.14450635 -0.06172014 -0.068340726
-0.017220717 -0.19549006 0.17274566 0.13011913 -0.073737666 -0.39233977 -0.054212462 -0.10932287
0.0997456 0.089385375 -0.1379828 0.26035863 0.14613879 -0.18072844 -0.100865215 0.17757443
-0.07046419 -0.14265744 0.13601585 -0.35187235 -0.31791833 -0.40042448 0.030216657 0.08613019
-0.23004003 -0.13922676 0.09523726 -0.43973824 -0.3382309 0.01681036 -0.13966286 0.058928847
-0.4731447 -0.3248536 -0.0437506 0.20844932 -0.2465657 -0.21894339 -0.2296594 -0.039947577
0.016715722 0.082108624 0.19071785 -0.13741438 0.21640985 0.058958706 0.0010902773 0.021782309
-0.035440527 0.094871156 0.0148737775 -0.11969116 -0.11189073 0.17116773 -0.17398131 -0.013786948
-0.11122 -0.22536126 -0.065829314 0.030764032 0.05253739 0.0349317 -0.1421172 -0.09118799
0.005001555 -0.044344913 0.0028912202 0.00044952164 0.13884129 0.24931403 0.20609312 0.20360094
-0.07406068 0.14293645 -0.1809398 0.3771395 -0.11569163 -0.12294547 -0.014599812 0.21972093
-0.04852883 0.05497606 -0.02330872 -0.04920389 -0.0455961 0.15686142 -0.18336216 0.12963834
-0.36082405 -0.10981511 0.02319709 -0.03042394 0.04334215 -0.0528399 0.08316612 -0.23339932
0.161873 0.09748339 0.06138455 -0.18912621 0.2530752 -0.001275521 -0.030274233 0.068735525
0.21162619 -0.059830796 -0.03722812 -0.12592445 -0.0013178026 0.1235495 0.099656925 -0.07358479
0.061112616 -0.110921025 -0.11252634 0.13297053 0.043370806 0.03807027 0.13305567 -0.0938362

L3.bias f4 [9]
00000000: f2d7 d9bd 5d79 89bd 63ef 9d3d 9dc3 aebd
00000010: 3ca3 1dbe 1266 2c3e c661 17bd a8c3 e9bd
00000020: 73e5 c83d
-0.106368914 -0.06712601 0.07711675 -0.08533404 -0.153943 0.16835812 -0.03695848 -0.114142716
0.09809389

onnx::Conv_43 f4 [6, 1, 3, 3]
00000000: 2d33 29c0 5311 d7be 2bdd 3dc0 2cd1 febf
00000010: 9e99 63bf 1e54 da3e a74c 1c40 0ec2 a740
00000020: aaf6 6340 7dc1 85c0 b17e 42bf 0b8f c8be
00000030: e080 26c0 85ff 703f fde7 423f e36c 90bf
00000040: c5d5 b23c efb2 fc3f c2b5 2a40 104d 3c40
00000050: d930 c6c0 7c74 8ebf affa e140 b7a7 b340
00000060: 87ee 87c0 6a53 7b40 776b 1ac1 3188 a4bf
00000070: 3607 98bf ec46 56c0 1b40 a3c0 2d69 8dbf
00000080: ef9c 8440 6251 afbe 750f 8d3f d63b df40
00000090: 08e4 803f 79fe 4040 c8d3 9840 e206 9bc0
000000a0: 1bbf 81c0 e0b3 b23f 0316 6ac0 58e9 c93f
000000b0: c3f8 1e40 f649 17c0 86d0 21c0 c0c7 7e3e
000000c0: 36b4 c4be 5adb a5bf 5882 93bf de1a 0240
000000d0: bdc7 b83f e4c2 3cc0
-2.6437485 -0.42005405 -2.966624 -1.9907584 -0.88906276 0.426423 2.4421785 5.2424383
3.5619302 -4.179869 -0.75974566 -0.39171633 -2.601616 0.9413989 0.76135236 -1.128323
0.021830449 1.9742106 2.6673436 2.9422035 -6.193463 -1.1129298 7.061851 5.614223
-4.247867 3.9269662 -9.651237 -1.2854062 -1.1877201 -3.3480787 -5.1015754 -1.1047722
4.144157 -0.34241778 1.1020342 6.976054 1.006959 3.0155318 4.775852 -4.84459
-4.0545783 1.3961143 -3.6575935 1.5774336 2.4839332 -2.3638892 -2.5283523 0.24880886
-0.3841874 -1.2957566 -1.1524153 2.0328898 1.4435955 -2.9493952

onnx::Conv_44 f4 [6]
00000000: 5430 913d dc1c 823f ac9d 193e 726d 503e
00000010: 265c 2cbe 8806 a03f
0.07089296 1.0165057 0.15001553 0.2035425 -0.16832027 1.2501993

onnx::Conv_46 f4 [16, 6, 5, 5]
00000000: b19b 5ebc 9cf6 db3d 4e82 7ebd 1608 e8bd
00000010: dafa a5bd a8ef b7bc 59ec c43d 1f0a 923d
00000020: 7a22 dabd a5fb 9ebd aeeb 003d 2bfa 563d
00000030: 6a43 e1bb 31ad a8bc 76a7 bc3c 310d 54bd
00000040: ed24 773b 94ba 30bd 2212 ec3d 9a60 133e
00000050: 7e7b 0abd 53d9 67bd 76db d13c 5d30 303e
00000060: 0820 4a3e 9a1a dabc 74fb e43b fc74 27bd
00000070: b98d 7c3d abb5 dc3d fb2c 5abc 42bd afbb
00000080: 1289 89bd ee67 bd3d 2226 2a3c 1d4f d63d
00000090: e5bb 1bbd 46d3 a13a a273 ccbb 6f47 be3d
000000a0: d9df 683d 7909 54bd 30e4 84bd fc98 50bc
000000b0: 42b5 27bd e23b 9d3d a102 ccbb ff0c b1bb
000000c0: 9ea2 8b3c 5ba4 34be 2e00 8e3d 7184 9dbc
000000d0: bc98 d83c 91c9 8dbd a97b 30bd 18ec 8dbc
000000e0: 024c a3bc b88a 98bc 0511 cfbd 9dcc c3bd
000000f0: e643 a3bd 4b60 b63b b990 53bd df71 2ebe
00000100: e63b 05bd e29b adbd daf7 a7bd 6ac4 aabd
00000110: cd2a 94bd bf18 bc3c 15b7 85bd 9252 1bbd
00000120: dba0 92bc 9de5 063d 5a6b ab3d baaa 1a3d
00000130: 4523 503c 289d 92bd 71aa a2bd 0229 da3d
00000140: b4a3 803d 8604 2b3e dc20 4abd fa05 c4bd
00000150: 807e bc3d 3e7d 80bd 67b6 273e ca8b 223c
00000160: 5881 d2bb 7bb6 243e b66f e13d 7366 9b3d
00000170: 21ed da3d dfbb fb3d 2ca2 3c3e 9800 03bc
00000180: 9483 bcbd 1c4a 093e 1ae2 633e a12a bc3d
00000190: d8ea df3c 022f aabd 9686 88bd 965e 32be
000001a0: d442 48be b42e 50bd c978 27bd bc85 09bd
000001b0: 730f e5bd 7a6d 35be 6b38 7bbc 1c82 353b
000001c0: 895b 913d d7b1 16be a66d 03be dd56 46bd
000001d0: 4c2c 09bc 992c ccbb 5958 19bc 21b6 333c
000001e0: 1ffa 28bd 8161 ac3c ebf5 c73d 44b5 353e
000001f0: 7245 cb3d 5b77 e0ba 1dd1 453d b200 9e3b
00000200: c825 713c b1ae 51bd 9b00 9cbd 11fb c13c
00000210: b083 d73d ab4a 66bd acd2 663d 572c d7bc
00000220: 10d2 ecbd 1bea 8cbb 0967 c83d 2cfe fd3d
00000230: 4c09 063d 22a5 b9bd 25c2 c1bd c772 66bd
00000240: 3d98 963c fc0d 06bc 47f5 85ba 4431 babd
00000250: 7356 92bd aee4 143d 1579 26bd 57f8 ac3c
00000260: 2600 a33c 0c56 6dbd cde4 a4bc 1032 ccbd
00000270: ef4a 82bd 126e b83c bd64 5bbb f4df b0bb
00000280: 3a61 b43a 913b 88bc f8dd e13c 9f3a 71bd
00000290: fe05 bfbd 2f3d 0b3d 4f34 aebd 400e d2bd
000002a0: 52cf b6bd f7af 09be ed4a 4a3c 6812 23bc
000002b0: fae5 7cbd feaa 7bbd 95c4 1abe ae5b f93d
000002c0: 3943 d13c 0948 a23d b38b fbbc 59dd 603d
000002d0: 3f05 e73d c316 fe3c 1261 1e3d f013 0dbd
000002e0: 59b0 9d3d d329 803d 3489 c93d 8d4f c03c
000002f0: 17d4 6a3d c0f3 a53d 73a6 f13c 31e9 7d3c
00000300: 9ca8 31bd 0e4b df3d 12c5 153d b65b 2a3d
00000310: 7aca 073e 9068 27bd 8af0 833e 7bb2 403d
00000320: cc23 b3bd 9c9e 3b3d aff7 8dbd b516 933c
00000330: 541f a13d 3427 02bd a08c 13bc 3ca6 9bbd
00000340: 15eb cfbc 6249 803c 452d d83b 87fd 5ebc
00000350: c160 bc3c c7d1 383c 8722 5a3d 8e33 b63d
00000360: 98d7 aabd 99df b0bc 388a 2dbc 2a40 33bd
00000370: 94c8 e13d 07ad 73bd 5fc0 233d c609 1dbd
00000380: 344e 25bd 1c3c 2ebd dba8 2b3c be74 7e3d
00000390: 9bc9 843d cc7e adbb 6806 5ebd 54e7 5fbc
000003a0: 605a 5c3c 120c a73c dce8 293d 1590 1f3d
000003b0: ce36 443c 93c0 37bc 4917 3cbd af2e d63b
000003c0: 5f04 613c ddf1 3a3c 7e3c 7fbd 34a6 3e3d
000003d0: 7e5e 90bd 13a8 203d 3c05 833d d690 2bbc
000003e0: e2bc 7d3d 5c95 a1bd 701a b3bc 19e5 e0bc
000003f0: ee15 0dbd ab8c dc3b 44ea 383d 8d00 52bc
-0.013586924 0.107403964 -0.062135987 -0.11329667 -0.08104487 -0.022453144 0.09615392 0.07130837
-0.10651107 -0.07762841 0.03147476 0.052484673 -0.0068744915 -0.020590397 0.02302907 -0.051770393
0.0037711218 -0.043146685 0.11526896 0.1439232 -0.033809178 -0.05660374 0.025617342 0.17205949
0.19738781 -0.026624013 0.0069879834 -0.04088305 0.061658595 0.10776838 -0.013316388 -0.0053631375
-0.06715597 0.09248339 0.010385068 0.104643084 -0.038020987 0.001234629 -0.0062393704 0.092909686
0.056854103 -0.051766846 -0.06488836 -0.012731787 -0.040944345 0.07677437 -0.0062258993 -0.0054031606
0.017045315 -0.17640822 0.06933628 -0.019228192 0.026440017 -0.06923211 -0.04308668 -0.017324492
-0.019933704 -0.018620834 -0.10110668 -0.09560511 -0.07971935 0.0055656782 -0.05165169 -0.17035626
-0.032527827 -0.08476998 -0.08201571 -0.08338244 -0.07234726 0.022961019 -0.06529061 -0.037920542
-0.017898967 0.03293382 0.08370085 0.037760474 0.012703721 -0.071588814 -0.07942665 0.10652353
0.06281224 0.16700944 -0.049347743 -0.095714524 0.092038155 -0.06273888 0.16378175 0.009921024
-0.0064241104 0.16085236 0.11007635 0.075879 0.1068976 0.12291693 0.18421239 -0.007995747
-0.09204784 0.13407177 0.2225422 0.09187818 0.027333662 -0.08309747 -0.06666295 -0.17418894
-0.19556743 -0.05082579 -0.040886674 -0.033574805 -0.11184587 -0.17717543 -0.015333275 0.002769596
0.07097537 -0.14716278 -0.12834796 -0.048422683 -0.008372378 -0.0062309024 -0.009359443 0.010968716
-0.04125416 0.021042587 0.09763702 0.17744929 0.09925355 -0.0017125414 0.04829513 0.00482186
0.01471848 -0.05119199 -0.07617303 0.023679288 0.10523164 -0.056223553 0.056353256 -0.02626626
-0.11563504 -0.0043003685 0.097852774 0.12401995 0.03272371 -0.090647 -0.09460858 -0.056261804
0.01838314 -0.008182045 -0.0010220193 -0.09091428 -0.07145395 0.0363509 -0.040642817 0.021114511
0.019897532 -0.05794339 -0.020128632 -0.09970486 -0.06361949 0.022513423 -0.0033476793 -0.005397791
0.0013761886 -0.016629966 0.027571663 -0.058893796 -0.09327315 0.033993896 -0.08506071 -0.10256624
-0.08926262 -0.13446032 0.012346965 -0.009953119 -0.06174276 -0.061442368 -0.15114053 0.1217569
0.02554475 0.07923896 -0.030706262 0.054898594 0.112802975 0.031016713 0.038666792 -0.034442842
0.07699651 0.06257977 0.098406225 0.023475433 0.05733117 0.08103132 0.029498314 0.015497492
-0.04337369 0.109029874 0.036564894 0.04159137 0.13260832 -0.040871203 0.25769454 0.047045212
-0.08747062 0.04580556 -0.069320075 0.017955163 0.078673035 -0.03177567 -0.009005696 -0.07600066
-0.02538065 0.015659992 0.0065971934 -0.01361025 0.022995355 0.011280484 0.053255584 0.08896552
-0.083419025 -0.021590995 -0.010592036 -0.043762363 0.11024585 -0.059491184 0.03997838 -0.0383394
-0.040357783 -0.042537794 0.01047727 0.062123053 0.06483766 -0.0052946564 -0.05420533 -0.013665993
0.013449281 0.020391498 0.041481838 0.038955767 0.011975957 -0.011215347 -0.045920644 0.006536327
0.013733952 0.011410204 -0.06231355 0.046545222 -0.07049273 0.039222788 0.06397483 -0.010471543
0.06194771 -0.07889816 -0.021863192 -0.027452992 -0.034444742 0.006730636 0.045145288 -0.012817514

onnx::Conv_47 f4 [16]
00000000: cdb0 30be ee84 313e 9517 813f 9bd7 873f
00000010: 3a86 82be 06ba fa3e 3677 ab3f 305a c4be
00000020: 5642 113f dea1 303f 02fb 843f f68d 023f
00000030: b989 923f 64b1 983e 6f70 aa3f 24a1 b3bf
-0.17254944 0.17335865 1.0085322 1.0612673 -0.25493032 0.4897005 1.3395755 -0.38350058
0.56741846 0.6899699 1.0389102 0.50997865 1.144828 0.29822838 1.3315562 -1.4033551
